last_brain.pth (torch, 7842 bytes, 12 tensors)

fc1.weight f4 [30, 4]
-0.37317252 -0.12948704 -0.12466055 -0.4864123 0.593375 0.083368905 0.66867393 0.08214854
0.055818915 0.05681902 0.120200455 0.043046772 0.37210432 0.45348254 -0.44622928 -0.19521968
0.022815824 -0.21345735 -0.32949966 -0.08166784 1.0851121 -0.19033125 0.30648315 -0.17714898
0.5359097 0.7764943 0.6931337 -0.59178305 -0.21509251 -0.5311804 -1.0060041 0.15080796
-0.51390153 0.55778605 0.34938994 -0.32686493 1.0036373 0.05511021 -0.289352 0.19135892
0.7955526 0.48158845 0.8454779 0.6318627 0.12635343 0.24285182 -0.2721784 -0.30965954
1.0549564 0.39187202 -0.20651244 0.14119513 0.3777886 -0.17887934 -0.39006332 0.30928656
-0.20843504 0.35792926 0.34654063 -0.4110822 -0.7171379 0.2567193 0.3132703 0.41475835
0.17711906 0.5448011 0.5296424 -0.30308855 -0.18345656 0.16361688 0.2473609 0.75612617
0.4979527 0.012642723 -0.9109218 0.31945646 -1.3613646 0.24942671 0.2100309 -0.18961425
0.22629051 -1.8111538 -2.2883396 -0.26673606 0.47645816 0.09594087 0.65069616 0.12584436
0.0718732 -0.08720269 -0.9778935 0.92433465 -0.21200618 0.080003105 0.39513016 0.7516919
-0.003960151 0.37944707 0.6274754 0.31708157 -0.22113916 0.16652921 0.6006739 -0.016134098
0.14413892 0.009210354 -0.035796434 0.17405125 0.0097979335 0.33165294 -0.11128554 0.8380348
-0.37977085 0.6253995 0.050693285 0.31429926 -0.17625596 0.13615647 0.4062449 0.20635043
00000000: 7810 bfbe 4098 04be 084e ffbd 080b f9be
00000010: 6de7 173f 51bd aa3d 372e 2b3f 7e3d a83d
00000020: 60a2 643d 10bb 683d a82b f63d d051 303d
00000030: 7584 be3e dd2e e83e 2a78 e4be abe7 47be
00000040: 40e8 ba3c 9094 5abe 2eb4 a8be 7841 a7bd
00000050: f4e4 8a3f 32e6 42be 5ceb 9c3e 8b66 35be
00000060: 6131 093f 55c8 463f 3671 313f 187f 17bf
00000070: 3641 5cbe 70fb 07bf bec4 80bf 676d 1a3e
00000080: 0d8f 03bf 11cb 0e3f 3de3 b23e d75a a7be
00000090: 3077 803f 3ebb 613d f225 94be 98f3 433e
000000a0: 56a9 4b3f c392 f63e 3d71 583f c1c1 213f
000000b0: cb62 013e 26ae 783e f85a 8bbe b28b 9ebe
000000c0: d008 873f 73a3 c83e ff77 53be 7595 103e
000000d0: 826d c13e 252c 37be 61b6 c7be cf5a 9e3e
000000e0: ff6f 55be 8142 b73e c66d b13e 5e79 d2be
000000f0: 5996 37bf b670 833e f764 a03e 355b d43e
00000100: b35e 353e 1678 0b3f a596 073f 6c2e 9bbe
00000110: 09dc 3bbe 2f8b 273e 2d4c 7d3e 7c91 413f
00000120: a8f3 fe3e 6c23 4f3c 2c32 69bf cc8f a33e
00000130: 3241 aebf b769 7f3e 5712 573e 3d2a 42be
00000140: b3b8 673e e3d3 e7bf 2874 12c0 a191 88be
00000150: 53f2 f33e a67c c43d 0694 263f 58dd 003e
00000160: 4232 933d 5397 b2bd 3a57 7abf 32a1 6c3f
00000170: 2618 59be abd8 a33d 804e ca3e e16e 403f
00000180: 28c4 81bb e346 c23e 3aa2 203f 8458 a23e
00000190: 4e72 62be a286 2a3e c4c5 193f a82b 84bc
000001a0: 2799 133e 06e7 163c 489f 12bd 7e3a 323e
000001b0: 8387 203c 6ace a93e ace9 e3bd 7389 563f
000001c0: 5371 c2be 2e1a 203f c3a3 4f3d d5eb a03e
000001d0: 717c 34be 9a6c 0b3e 55ff cf3e 874d 533e

fc1.bias f4 [30]
-0.45928228 -0.66930085 -0.38967985 0.4351173 -0.049556494 0.3995535 0.064946346 0.7034554
0.082159504 -0.21025133 0.24726154 -0.23323493 -0.15787825 0.40843707 -0.36291745 0.08141419
0.55419254 0.036762774 -0.094417594 -0.5301411 0.5351984 -0.63294077 -0.27218536 0.106069244
0.042273775 0.25324446 0.24183613 -0.5346695 0.39919448 0.20754196
00000000: 0c27 ebbe 4d57 2bbf 1e84 c7be b2c7 de3e
00000010: c0fb 4abd 4792 cc3e 9702 853d a715 343f
00000020: 3e43 a83d 204c 57be 2132 7d3e 23d5 6ebe
00000030: d6aa 21be aa1e d13e 51d0 b9be 7cbc a63d
00000040: 90df 0d3f 9094 163d 035e c1bd 54b7 07bf
00000050: c302 093f 6808 22bf e15b 8bbe d53a d93d
00000060: 4427 2d3d 42a9 813e e4a3 773e 1ae0 08bf
00000070: 3863 cc3e e185 543e

fc2.weight f4 [3, 30]
-0.14024071 -0.21924838 -0.05115944 -0.2820792 -0.049615964 -0.38544208 0.16013454 0.114503436
-0.2357613 -0.50704277 -0.36419305 -0.11399741 -0.46688098 0.12539966 -0.058602564 -0.00064107473
-0.22617473 0.040695634 -0.39036536 -0.47379103 0.19978863 -0.17644632 0.6588393 0.016499931
-0.34860274 -0.19620931 -0.1764074 -0.12280623 -0.043288857 -0.25035357 -0.15420625 0.26807275
0.04479848 0.42850733 0.019586235 -0.8333052 0.6295536 0.23280337 0.14837947 -0.57527655
-0.28373972 0.019342609 -0.957419 0.14044482 0.5162784 0.15467638 -0.190471 0.065263994
0.35206813 -1.1714957 0.64272815 0.5243724 0.31590295 -0.06905962 -0.095608264 -0.04161798
-0.03037943 0.7069342 -0.17489286 -0.06517496 0.15550485 1.314456 -0.04278843 0.1729396
-0.044818938 -0.42728168 0.21187998 0.47065264 -0.016997535 -0.88422495 -0.49629566 -0.025497854
-0.9290081 0.045084734 0.73748136 -0.72978604 0.22534716 -0.48564202 -0.20542565 -1.3990661
0.5175227 1.2743956 0.9034723 -0.34213954 -0.24938342 -0.081222676 0.069774605 -0.047323182
0.035290077 -0.17106515
00000000: 439b 0fbe a682 60be 908c 51bd af6c 90be
00000010: 1c3a 4bbd aa58 c5be 4ffa 233e c780 ea3d
00000020: 696b 71be 8ecd 01bf 8377 babe 7977 e9bd
00000030: 060b efbe c568 003e 3e09 70bd cc0d 28ba
00000040: 599a 67be 77b0 263d f8dd c7be bd94 f2be
00000050: 6495 4c3e 58ae 34be b1a9 283f dd2a 873c
00000060: 0f7c b2be 18eb 48be 24a4 34be d581 fbbd
00000070: a84f 31bd 582e 80be 3ee8 1dbe d540 893e
00000080: 9c7e 373d 5065 db3e 5073 a03c 7d53 55bf
00000090: 6d2a 213f 0264 6e3e caf0 173e 5345 13bf
000000a0: 5546 91be 6474 9e3c 6919 75bf c4d0 0f3e
000000b0: d22a 043f 7c63 1e3e d40a 43be 21a9 853d
000000c0: 4642 b43e 92f3 95bf d589 243f 453d 063f
000000d0: 08be a13e 216f 8dbd 44ce c3bd 9d77 2abd
000000e0: 48de f8bc a4f9 343f 1d17 33be 737a 85bd
000000f0: aa3c 1f3e 1840 a83f ec42 2fbd 1417 313e
00000100: 1094 37bd aac4 dabe 11f7 583e 62f9 f03e
00000110: 6a3e 8bbc 915c 62bf 771a febe e0e0 d0bc
00000120: 7ad3 6dbf c5aa 383d 94cb 3c3f 42d3 3abf
00000130: 68c1 663e 12a6 f8be 1a5b 52be 9914 b3bf
00000140: 5e7c 043f 651f a33f f649 673f ea2c afbe
00000150: 5e5e 7fbe 1358 a6bd fde5 8e3d f4d5 41bd
00000160: 548c 103d b42b 2fbe

fc2.bias f4 [3]
0.12261211 0.014273973 0.09861675
00000000: 0f1c fb3d 62dd 693c 94f7 c93d

exp_avg f4 [30, 4]
0.0 0.0 0.0 0.0 -0.00014709061 7.108353e-05 6.534428e-05 5.5870532e-05
0.0 0.0 0.0 0.0 0.00018742599 -0.00035695217 1.28590555e-05 0.00087177235
0.0 0.0 0.0 0.0 -5.2563333e-05 0.001056705 -0.00038573358 0.00026350352
-0.00045717848 -0.0012040747 -7.8723286e-05 -0.0006754132 6.1412655e-05 -9.0538066e-05 0.00017160393 0.0004688802
4.268961e-05 -0.00011422742 -0.00018649075 0.00012421863 0.00034672182 0.00079765357 8.198642e-05 -9.2695525e-05
2.895438e-06 0.00044120153 -0.00027154764 -0.00021047087 -9.759249e-12 2.2259075e-11 0.0 0.0
0.00029525819 0.0014641827 -0.00019079652 -2.9222248e-05 -5.620026e-05 -0.00022487082 0.00012258047 0.00015503044
4.8346774e-05 -0.00016676077 -0.00012432715 -0.000111217654 0.00014155169 -0.0004656734 -0.00018164361 -6.767878e-05
0.00014566071 0.00048227754 -8.670685e-05 -7.898781e-05 0.00011285946 -0.00028816066 -6.6730485e-05 2.0312109e-05
-0.00016032775 -0.0005560164 5.9765447e-05 0.00034401557 -0.00055971154 0.00066127704 0.00029129497 0.00037696288
0.00041095892 6.868114e-05 0.0002107775 0.0007954321 -9.1616836e-05 5.022755e-05 0.00017359424 1.5881586e-05
-0.00082540634 -0.00049999915 0.00011529675 -0.00010756754 -1.5433254e-05 -1.9050016e-05 -5.6888348e-05 -0.00014882095
0.00010070798 0.00022604172 -0.0002420615 4.556579e-05 7.2692565e-05 0.00013061559 -0.00012294523 5.0888968e-05
0.00010712104 0.00015348844 -8.621053e-05 8.296296e-05 5.9157115e-05 -0.000488862 7.834292e-06 0.0010352276
1.1383304e-06 0.00030635734 -2.1887572e-05 -0.00020399538 7.4470576e-05 0.00015968448 -0.00017216716 3.885272e-05
00000000: 0000 0000 0000 0000 0000 0000 0000 0000
00000010: 563c 1ab9 ae12 9538 7109 8938 8756 6a38
00000020: 0000 0000 0000 0000 0000 0000 0000 0000
00000030: c887 4439 4f25 bbb9 39bd 5737 a787 643a
00000040: 0000 0000 0000 0000 0000 0000 0000 0000
00000050: 7377 5cb8 2381 8a3a 493c cab9 d826 8a39
00000060: 75b1 efb9 0bd2 9dba 3e18 a5b8 360e 31ba
00000070: abca 8038 41df bdb8 94f0 3339 09d4 f539
00000080: 9f0d 3338 618d efb8 bb8c 43b9 af40 0239
00000090: 37c8 b539 a019 513a 20f0 ab38 8865 c2b8
000000a0: 3f4f 4236 1151 e739 825e 8eb9 d8b1 5cb9
000000b0: c0af 2bad fbca c32d 0000 0000 0000 0000
000000c0: e2cc 9a39 d2e9 bf3a 8d10 48b9 4d22 f5b7
000000d0: 92b8 6bb8 4dcb 6bb9 f288 0039 ab8f 2239
000000e0: f4c7 4a38 81dc 2eb9 d15d 02b9 863d e9b8
000000f0: 7e6d 1439 a025 f4b9 9677 3eb9 c5ee 8db8
00000100: 80bc 1839 32da fc39 63d6 b5b8 42a6 a5b8
00000110: f6ae ec38 4514 97b9 a8f1 8bb8 ec63 aa37
00000120: a71d 28b9 a1c1 11ba a9ac 7a38 fd5c b439
00000130: 9bb9 12ba 8d59 2d3a f3b8 9839 1aa3 c539
00000140: f975 d739 e808 9038 2804 5d39 8b84 503a
00000150: 6a22 c0b8 6cab 5238 d906 3639 7239 8537
00000160: 1560 58ba 6012 03ba 79cb f138 e295 e1b8
00000170: a976 81b7 99cd 9fb7 669b 6eb8 d20c 1cb9
00000180: 2f33 d338 9d05 6d39 e4d1 7db9 e51d 3f38
00000190: 8672 9838 dbf5 0839 dcea 00b9 9d71 5538
000001a0: 2ca6 e038 bdf1 2039 edcb b4b8 66fc ad38
000001b0: 781f 7838 f926 00ba 0770 0337 79b0 873a
000001c0: bcc8 9835 969e a039 349b b7b7 98e7 55b9
000001d0: 162d 9c38 fa70 2739 c587 34b9 caf5 2238

exp_avg_sq f4 [30, 4]
0.0 0.0 0.0 0.0 7.4314227e-07 8.7675073e-07 2.7938486e-06 2.4263778e-07
0.0 0.0 0.0 0.0 1.3314685e-05 3.227081e-06 1.524966e-06 1.9549425e-05
0.0 0.0 0.0 0.0 3.405935e-05 7.0128767e-06 4.01471e-06 5.5493525e-05
1.3923994e-05 4.581552e-06 2.5128957e-06 6.947779e-06 7.50759e-06 9.567835e-07 6.250378e-07 7.4328277e-06
8.273741e-07 3.4683154e-07 1.7237942e-07 5.484487e-07 2.4582234e-05 2.9796813e-06 1.961984e-06 1.5345195e-05
7.2055473e-06 1.798787e-06 1.6516905e-06 9.710403e-06 4.3176666e-13 2.2461046e-12 0.0 0.0
5.121074e-05 9.1727925e-06 3.3954025e-06 3.68704e-05 1.4460999e-06 3.493865e-07 1.6457352e-07 2.1457433e-06
2.6330133e-07 5.3032056e-07 6.50984e-07 3.4701273e-07 6.2696563e-06 1.9252661e-06 2.4014212e-06 5.493679e-06
4.159919e-06 9.949259e-07 6.675015e-07 5.212031e-06 4.3066825e-06 7.9477724e-07 1.2026554e-06 2.9752014e-06
5.2414525e-06 1.1177407e-06 1.11396034e-07 9.9124e-06 2.3128729e-05 8.037093e-06 3.8690514e-06 8.742927e-06
2.1624419e-05 2.4192803e-07 1.2901774e-07 2.2585351e-05 9.687903e-07 1.3013896e-06 3.2710057e-06 6.928778e-07
4.454818e-06 1.4611379e-06 3.3990347e-08 1.3822862e-05 2.394227e-06 4.490346e-07 6.450186e-07 1.9964052e-06
3.0808162e-06 6.076276e-07 4.6603603e-07 2.5298284e-06 1.0611919e-06 3.1423423e-07 1.3879536e-07 9.4156906e-07
9.728692e-07 2.5526438e-07 7.748868e-08 6.6368443e-07 2.6504335e-06 2.85473e-06 1.275297e-06 1.8981296e-05
1.9970735e-06 5.0825724e-07 2.538094e-07 2.8968195e-06 2.2325082e-06 5.26226e-07 3.0134208e-07 1.7286868e-06
00000000: 0000 0000 0000 0000 0000 0000 0000 0000
00000010: 597c 4735 da59 6b35 f47d 3b36 e243 8234
00000020: 0000 0000 0000 0000 0000 0000 0000 0000
00000030: 2362 5f37 d490 5836 6fad cc35 12fe a337
00000040: 0000 0000 0000 0000 0000 0000 0000 0000
00000050: f3da 0e38 2750 eb36 19b6 8636 b8c1 6838
00000060: 199b 6937 3bbb 9936 38a3 2836 f820 e936
00000070: b5e9 fb36 d56a 8035 45c8 2735 8167 f936
00000080: b718 5e35 2a34 ba34 4b17 3934 1c39 1335
00000090: f235 ce37 89f6 4736 a1aa 0336 8eb9 8037
000000a0: 2ec7 f136 da6d f135 a7af dd35 dde9 2237
000000b0: 2210 f32a 390e 1e2c 0000 0000 0000 0000
000000c0: 1dcb 5638 d8e4 1937 92dc 6336 4aa5 1a38
000000d0: 9d17 c235 5193 bb34 a0b5 3034 97ff 0f36
000000e0: dc5b 8d34 5a5b 0e35 48bf 2e35 114d ba34
000000f0: f05f d236 d233 0136 1a28 2136 5856 b836
00000100: 6f95 8b36 6589 8535 5b2e 3335 01e3 ae36
00000110: 1f82 9036 ad58 5535 ed6a a135 92a9 4736
00000120: bcdf af36 4705 9635 9e38 ef33 6f4d 2637
00000130: 9104 c237 0dd7 0637 e6d2 8136 96ae 1237
00000140: 1666 b537 56e2 8134 2088 0a34 ac75 bd37
00000150: 6207 8235 68ab ae35 7383 5b36 33fe 3935
00000160: 987a 9536 511c c435 c8fc 1133 bde8 6737
00000170: 82ac 2036 d812 f134 5725 2d35 fbf9 0536
00000180: 05c0 4e36 da1b 2335 8133 fa34 1fc6 2936
00000190: 476e 8e35 06b4 a834 c707 1534 22c0 7c35
000001a0: 8893 8235 450b 8934 da67 a633 0c28 3235
000001b0: 1ade 3136 e393 3f36 df2a ab35 063a 9f37
000001c0: 7605 0636 2c6f 0835 4c43 8834 fb66 4236
000001d0: 33d2 1536 fa41 0d35 24c8 a134 3a05 e835

exp_avg f4 [30]
0.0 0.00020477349 0.0 -0.0005035716 0.0 0.0016177857 -0.00012064786 -0.0005218952
-0.000517363 0.0009443153 0.000106141604 2.2259075e-11 0.0012032547 -0.00021624206 -0.00010005474 -0.00046546638
0.00029772907 0.00023057999 0.00040390596 0.0025402387 -0.0015943402 0.0003460765 -0.00034172513 0.0004225708
0.0003215467 0.00015102161 8.083235e-05 0.0014707228 0.00027542308 0.00022651473
00000000: 0000 0000 77b8 5639 0000 0000 1e02 04ba
00000010: 0000 0000 e10b d43a 5404 fdb8 cbcf 08ba
00000020: a59f 07ba ed8b 773a 5798 de38 fbca c32d
00000030: 87b6 9d3a 09bf 62b9 7bd4 d1b8 d709 f4b9
00000040: 8518 9c39 d8c7 7139 57c3 d339 227a 263b
00000050: 2ef9 d0ba 9a71 b539 9229 b3b9 7e8c dd39
00000060: 4495 a839 8e5b 1e39 8a84 a938 45c5 c03a
00000070: a966 9039 9684 6d39

exp_avg_sq f4 [30]
0.0 3.9133465e-06 0.0 6.104152e-05 0.0 0.00019055753 2.972311e-05 6.372375e-05
4.425729e-06 6.8723464e-05 6.278539e-05 2.2461046e-12 0.00013302233 6.512343e-06 8.1939356e-07 0.0001060562
2.3939787e-05 5.2696178e-05 2.3212708e-05 5.4988173e-05 0.00011804362 4.7238323e-06 2.9385013e-05 2.8156848e-05
1.9640329e-05 5.612184e-06 3.3170315e-06 2.686941e-05 8.795409e-06 1.3145935e-05
00000000: 0000 0000 644f 8336 0000 0000 6b03 8038
00000010: 0000 0000 66d0 4739 e555 f937 6ea3 8538
00000020: b980 9436 a11f 9038 a6ab 8338 390e 1e2c
00000030: e97b 0b39 9a84 da36 4cf4 5b35 7d6a de38
00000040: 4dd2 c837 1706 5d38 e9b8 c237 1aa3 6638
00000050: 308e f738 6981 9e36 d67f f637 5f32 ec37
00000060: 49c1 a437 4b50 bc36 2b9a 5e36 9e65 e137
00000070: fe8f 1337 5c8d 5c37

exp_avg f4 [3, 30]
0.0 4.612701e-06 0.0 -0.0006534803 0.0 -0.0003798905 0.00021229175 -0.0004311764
1.1258879e-05 -0.0006443671 -0.0005261329 0.0 -0.00064842054 -0.0006414321 0.0 -0.00030373895
-1.678807e-05 -0.0004033655 -0.00034648634 0.00013573743 -0.00051593455 3.5437106e-06 -0.00035028526 -0.00026211116
-3.7298076e-05 0.00031120266 -0.00028147336 -0.00033736395 -0.00036938084 6.664132e-05 0.0 -5.4552524e-06
0.0 -0.0015654092 0.0 -0.00038777597 -0.0014511902 -0.00023966972 -0.0015637295 -0.00019895588
-0.0004625754 -5.6084717e-11 -0.0007399561 0.00010327184 -3.1078216e-05 -0.0005065933 -0.0020676786 0.0006323979
-0.000526331 -0.0002890698 -0.0014067828 -5.8685328e-06 0.00085635035 0.00064248306 -0.00021061854 -0.00068946014
-0.00012660086 -0.00016286282 -0.0012338546 -0.0002701931 0.0 -0.00012599748 0.0 1.24554945e-05
0.0 0.00055569666 0.00020526168 -0.00070255867 0.00018391958 0.00032246736 0.00089684455 0.0
0.0002936625 -0.00010066064 -1.7061919e-05 0.00036449567 0.00012343323 0.00017396035 7.93896e-05 0.00049674424
-0.001090917 -0.000107460015 -0.00019030279 0.00011538228 0.0002895999 3.3867815e-05 -4.1390886e-06 3.9945786e-05
6.3949556e-05 5.007677e-05
00000000: 0000 0000 cdc6 9a36 0000 0000 524e 2bba
00000010: 0000 0000 0a2c c7b9 a29a 5e39 840f e2b9
00000020: 84e4 3c37 beea 28ba 2eec 09ba 0000 0000
00000030: c4fa 29ba c825 28ba 0000 0000 273f 9fb9
00000040: 1bd4 8cb7 cd7a d3b9 9ca8 b5b9 bd54 0e39
00000050: c83f 07ba 7cd0 6d36 7ea6 b7b9 f76b 89b9
00000060: 8170 1cb8 ea28 a339 b792 93b9 39e0 b0b9
00000070: 75a9 c1b9 c9c1 8b38 0000 0000 430c b7b6
00000080: 0000 0000 6b2e cdba 0000 0000 694e cbb9
00000090: dd35 beba da4f 7bb9 0ef6 ccba d09e 50b9
000000a0: d285 f2b9 c7a9 76ae 9df9 41ba a693 d838
000000b0: fb59 02b8 e7cc 04ba e481 07bb 81c7 253a
000000c0: 7af9 09ba 4b8e 97b9 cc63 b8ba 50ea c4b6
000000d0: b37c 603a 4f6c 283a 7cd9 5cb9 e3bc 34ba
000000e0: 29c0 04b9 28c6 2ab9 4ab9 a1ba b4a8 8db9
000000f0: 0000 0000 311e 04b9 0000 0000 f1f7 5037
00000100: 0000 0000 2cac 113a 833b 5739 ea2b 38ba
00000110: 89da 4039 d610 a939 381a 6b3a 0000 0000
00000120: b7f6 9939 c519 d3b8 3120 8fb7 c819 bf39
00000130: db6d 0139 2069 3639 f87d a638 f137 023a
00000140: 1afd 8eba 285c e1b8 048c 47b9 64f9 f138
00000150: 71d5 9739 4a0d 0e38 80e2 8ab6 768b 2738
00000160: a81c 8638 8609 5238

exp_avg_sq f4 [3, 30]
0.0 1.6334586e-10 0.0 4.4918297e-06 0.0 8.029703e-06 1.8693908e-06 1.4368972e-05
7.894603e-06 2.8972072e-06 1.5640459e-05 0.0 3.6282386e-06 8.259572e-06 0.0 5.3424124e-06
8.284462e-06 6.137101e-06 2.4254225e-06 2.2914182e-06 7.183894e-06 9.2533536e-11 2.8154816e-06 1.115278e-05
3.820214e-06 7.0553715e-06 3.6741026e-06 2.2183224e-06 2.3384497e-05 7.124116e-06 0.0 9.231755e-08
0.0 5.646316e-05 0.0 9.463756e-05 2.177518e-05 0.00015142036 1.4395588e-05 2.7721842e-05
0.00016839958 1.425952e-11 3.649662e-05 9.941315e-05 1.0968264e-08 4.1045307e-05 8.633835e-05 6.8494664e-05
1.850152e-05 7.900503e-06 4.450763e-05 7.7917306e-08 2.209475e-05 8.185284e-05 2.8906965e-05 3.1505362e-05
3.421949e-05 8.41906e-06 0.00011714093 3.590317e-05 0.0 1.2701452e-07 0.0 4.1929256e-05
0.0 5.5432192e-05 9.746094e-06 0.00011956418 7.511942e-06 4.9298737e-06 4.983724e-05 0.0
6.147307e-06 5.04204e-05 2.8592433e-09 1.3787429e-05 8.299543e-05 1.1344437e-05 3.2920211e-06 3.0872184e-06
5.3880136e-05 1.0504982e-07 1.71564e-06 1.8505376e-05 7.3606407e-06 2.5509253e-05 1.7909228e-05 1.79419e-06
6.1543426e-05 2.0050065e-05
00000000: 0000 0000 c699 332f 0000 0000 86b8 9636
00000010: 0000 0000 50b7 0637 c7e7 fa35 4412 7137
00000020: 1073 0437 a46d 4236 a133 8337 0000 0000
00000030: aa7c 7336 9792 0a37 0000 0000 f942 b336
00000040: 7efd 0a37 4ced cd36 71c4 2236 44c6 1936
00000050: 2e0d f136 c07b cb2e 9bf1 3c36 d31c 3b37
00000060: 632f 8036 2ebd ec36 9a90 7636 7dde 1436
00000070: d329 c437 b10b ef36 0000 0000 1c40 c633
00000080: 0000 0000 dbd2 6c38 0000 0000 2778 c638
00000090: d8a9 b637 98c6 1e39 9484 7137 348c e837
000000a0: 6b94 3039 2bdb 7a2d f313 1938 077c d038
000000b0: ef6e 3c32 1028 2c38 8c10 b538 cba4 8f38
000000c0: b633 9b37 678c 0437 b4ad 3a38 7e53 a733
000000d0: 1d58 b937 69a8 ab38 3c7d f237 a024 0438
000000e0: e686 0f38 963f 0d37 8fa9 f538 bc96 1638
000000f0: 0000 0000 7c61 0834 0000 0000 32dd 2f38
00000100: 0000 0000 dd7f 6838 2883 2337 88be fa38
00000110: 170f fc36 4b6b a536 5408 5138 0000 0000
00000120: f744 ce36 7e7a 5338 577c 4431 8f50 6737
00000130: d50d ae38 fc53 3e37 7eec 5c36 022e 4f36
00000140: 5bfd 6138 c097 e133 f144 e635 fe3b 9b37
00000150: 6cfb f636 b4fc d537 c63b 9637 e6cf f035
00000160: e010 8138 3031 a837

exp_avg f4 [3]
-0.00027973793 -0.0015252584 -0.00029347
00000000: caa9 92b9 2eeb c7ba e0dc 99b9

exp_avg_sq f4 [3]
3.8441085e-05 0.00029793807 0.0002642946
00000000: cd3b 2138 9234 9c39 0591 8a39
